Model
Model: "sequential_4"
________________________________________________________________________________
Layer (type)                        Output Shape                    Param #     
================================================================================
conv2d_12 (Conv2D)                  (None, 100, 100, 6)             456         
________________________________________________________________________________
average_pooling2d_8 (AveragePooling (None, 50, 50, 6)               0           
________________________________________________________________________________
conv2d_13 (Conv2D)                  (None, 46, 46, 16)              2416        
________________________________________________________________________________
average_pooling2d_9 (AveragePooling (None, 23, 23, 16)              0           
________________________________________________________________________________
conv2d_14 (Conv2D)                  (None, 19, 19, 120)             48120       
________________________________________________________________________________
flatten_4 (Flatten)                 (None, 43320)                   0           
________________________________________________________________________________
dense_8 (Dense)                     (None, 84)                      3638964     
________________________________________________________________________________
dense_9 (Dense)                     (None, 1)                       85          
================================================================================
Total params: 3,690,041
Trainable params: 3,690,041
Non-trainable params: 0
________________________________________________________________________________


